best_model.pth (torch, 666603 bytes, 64 tensors)

res_stack0.conv1x1.weight f4 [32, 1, 1, 1]
0.3579674 -0.9373825 0.956148 -1.0379258 -0.2886756 -1.0443919 -0.43833348 -0.47052425
0.9522008 0.035083435 -0.43485504 -1.0245174 -0.58787674 -1.0134226 0.55008674 -0.2543799
1.05329 -0.7234645 1.0076852 -0.92148906 0.54165137 0.15883002 0.42807686 -0.35740456
-0.0939914 -0.7690983 -0.17361394 0.5334791 -0.084849045 0.3813861 0.93592113 -0.8495188
00000000: 8147 b73e 4df8 6fbf 1ec6 743f c1da 84bf
00000010: 4acd 93be a2ae 85bf 3f6d e0be 8ee8 f0be
00000020: 6ec3 733f a6b3 0f3d 52a5 debe 6323 83bf
00000030: 177f 16bf d5b7 81bf 7cd2 0c3f 153e 82be
00000040: 35d2 863f f834 39bf d4fb 803f b5e6 6bbf
00000050: aaa9 0a3f 56a4 223e e42c db3e bbfd b6be
00000060: 907e c0bd a0e3 44bf dac7 31be 1692 083f
00000070: 56c5 adbd 0a45 c33e 8798 6f3f 107a 59bf

res_stack0.conv1x1.bias f4 [32]
0.13495044 0.36091337 0.61837536 -0.32300562 -0.6191098 -0.9643528 -0.7767514 -0.5054341
-0.6066401 -0.2730327 0.0061674453 -0.18490928 0.25312343 -0.7165205 -0.7640868 0.17008024
-0.29460055 0.93631685 -0.2516833 -0.05914256 -0.03164997 -0.49701864 -0.70137835 -0.6263358
-0.09486218 -0.14656496 -0.71164 -0.6284575 -0.10449143 0.81399125 -0.32800668 -0.7032144
00000000: 7330 0a3e a3c9 b83e d94d 1e3f fe60 a5be
00000010: fb7d 1ebf d3df 76bf 2ed9 46bf 2164 01bf
00000020: c44c 1bbf f1ca 8bbe 4818 ca3b dc58 3dbe
00000030: 6599 813e e36d 37bf 319b 43bf 8429 2e3e
00000040: e2d5 96be 76b2 6f3f a2dc 80be 783f 72bd
00000050: 66a3 01bd 3a79 febe 888d 33bf 8b57 20bf
00000060: 1a47 c2bd 2015 16be 0a2e 36bf 97e2 20bf
00000070: 9aff d5bd bb61 503f 7ef0 a7be dc05 34bf

res_stack0.res_unit1.conv1.weight f4 [32, 32, 3, 2]
-0.07081627 -0.019801559 -0.067495845 -0.03719879 0.020491464 0.027629873 -0.023189846 -0.0314657
-0.057010293 0.0010311262 -0.04540018 0.0009306294 -0.011851473 -0.098073415 -0.013888547 0.029245252
0.02120598 -0.0076278 0.0925047 -0.019984964 0.05696219 -0.0029257482 0.08330438 -0.027441103
0.17555286 0.15804115 0.16678698 0.17051157 0.103186354 0.0629857 0.035657734 0.02597791
0.043767076 -0.032892574 0.11404791 0.1002808 0.13315566 0.16946423 0.053713057 0.043314736
0.09845141 0.102053344 0.09704756 0.09791649 0.12284237 -0.021798695 0.09202765 0.025106918
0.08967145 -0.016880985 -0.012415415 0.011869296 0.045365427 0.100082755 0.22712065 0.20141657
0.22544128 0.13273199 0.24281208 0.20378809 -0.009523854 -0.06917482 -0.018635068 0.05511335
0.028560055 0.004856519 0.061484713 -0.0032264371 0.022305349 0.043441955 -0.053410735 0.067619115
-0.12764826 0.00016366466 0.010566578 -0.05171358 -0.020397352 -0.10745311 0.105863005 0.009444776
0.035422146 0.04403943 0.0777381 0.0022350538 0.18512087 0.03312231 0.096446425 0.1510907
0.19284354 0.019133948 -0.018821735 -0.091022 0.016609523 -0.012484027 -0.104381956 -0.06862705
-0.018212901 0.08148635 0.08308785 0.06007799 0.10239299 -0.0102085015 -0.14394419 -0.1458193
-0.11900819 -0.11038717 -0.15215307 -0.086155415 -0.04953786 0.073945545 0.02703499 0.061834615
0.09896611 -0.05268461 -0.017035779 -0.027977703 -0.034422148 0.011925665 0.026462331 -0.07398808
0.016469834 -0.008254677 -0.034874856 -0.012739825 -0.035357963 0.039542653 0.22767784 0.14903794
0.20005687 0.0714528 0.15492724 0.15849175 0.18472034 0.041699808 0.099846765 0.04352123
0.16871947 0.14801572 0.06027227 0.07525445 0.15738939 0.09088401 0.07628779 0.13497202
0.028649904 -0.040243972 0.088640854 0.0014505297 0.036385983 0.008970871 0.0022214665 -0.021590387
0.040583782 0.033991605 -0.036760416 0.026237454 0.34127975 0.20253499 0.2983908 0.18653831
0.3465301 0.1962588 0.16923235 -0.0004807045 0.15113105 0.13786396 0.17845789 0.12673588
0.16875651 0.025497442 0.07615932 0.032617263 0.13921115 0.023183953 -0.11473016 -0.15343393
-0.13980134 -0.069775 -0.09973269 -0.06210522 0.011905177 0.035437528 0.04602824 -0.03481985
0.060678408 -0.046565957 0.1003534 0.0099858325 0.110911176 0.012902347 0.12552564 -0.010386684
0.0333422 0.0021910116 0.018435128 -0.10410613 -0.0120762745 -0.06317057 -0.043076724 -0.015700385
-0.101884775 -0.013666656 -0.16234076 0.026709367 -0.050100103 -0.0021468764 -0.13461465 -0.12125011
-0.0650759 -0.012642741 -0.056006275 0.03986803 0.0012288289 0.13631739 -0.052244395 0.0062626568
0.039512925 0.0801597 0.20878214 0.09521553 0.16058165 0.055637825 0.13276969 0.059904207
0.18672289 0.03627729 0.10642522 0.0897774 0.06184228 0.07586061 0.12307119 0.10656402
0.14797391 0.0775382 0.03152031 0.014406015 0.19483152 0.0999572 0.017278977 0.084338784
0.064618446 0.034319825 0.04113647 -0.00818521 0.110290036 0.000792945 0.20688789 0.016467249
0.19531482 0.100100264 0.17039981 0.094456784 -0.017438183 -0.055747382 -0.06609131 0.08046475
00000000: 1f08 91bd e136 a2bc 433b 8abd c25d 18bd
00000010: b7dd a73c 0b58 e23c a2f8 bdbc 2ee2 00bd
00000020: a083 69bd db26 873a 8af5 39bd 7bf5 733a
00000030: ae2c 42bc b7da c8bd ca8c 63bc bd93 ef3c
00000040: 2ab8 ad3c a0f2 f9bb 1b73 bd3d 82b7 a3bc
00000050: 2f51 693d e9bd 3fbb 7d9b aa3d 2acc e0bc
00000060: 21c4 333e 8ad5 213e 35ca 2a3e 969a 2e3e
00000070: 5e53 d33d a6fe 803d d80d 123d a0cf d43c
00000080: 1b45 333d 5dba 06bd f391 e93d 0560 cd3d
00000090: f559 083e 0888 2d3e 3902 5c3d cb6a 313d
000000a0: e5a0 c93d 5801 d13d dfc0 c63d 7188 c83d
000000b0: c894 fb3d 2d93 b2bc fe78 bc3d 06ad cd3c
000000c0: aaa5 b73d fe49 8abc 066a 4bbc 7077 423c
000000d0: 19d1 393d 30f8 cc3d 5192 683e 2540 4e3e
000000e0: 14da 663e e5ea 073e bba3 783e d3ad 503e
000000f0: f009 1cbc 87ab 8dbd 92a8 98bc 89be 613d
00000100: c7f6 e93c 6f23 9f3b 65d7 7b3d a272 53bb
00000110: b5b9 b63c 31f0 313d 37c5 5abd e47b 8a3d
00000120: 3ab6 02be 669d 2b39 711f 2d3c 9ed1 53bd
00000130: 5918 a7bc 6010 dcbd b4ce d83d 43be 1a3c
00000140: d016 113d b062 343d 2735 9f3d fb79 123b
00000150: 5390 3d3e 42ab 073d b485 c53d 85b7 1a3e
00000160: c778 453e ccbe 9c3c 0a30 9abc be69 babd
00000170: b210 883c ce89 4cbc 35c6 d5bd 578c 8cbd
00000180: 3933 95bc 51e2 a63d f629 aa3d 5714 763d
00000190: 6ab3 d13d 8f41 27bc 1b66 13be a851 15be
000001a0: 91ba f3bd ab12 e2bd 04ce 1bbe 4072 b0bd
000001b0: 36e8 4abd c370 973d 7c78 dd3c 4b46 7d3d
000001c0: beae ca3d d1cb 57bd 9e8e 8bbc 7f31 e5bc
000001d0: 3dfe 0cbd dd63 433c 88c7 d83c 1087 97bd
000001e0: bfeb 863c a03e 07bc f0d8 0ebd b3ba 50bc
000001f0: 83d3 10bd 7af7 213d 6124 693e 679d 183e
00000200: b5db 4c3e d855 923d 3fa5 1e3e a94b 223e
00000210: 5427 3d3e 6bcd 2a3d 767c cc3d 5143 323d
00000220: ccc4 2c3e 6f91 173e 0ee0 763d 011f 9a3d
00000230: af2a 213e 6521 ba3d c63c 9c3d 1b36 0a3e
00000240: 34b3 ea3c ddd6 24bd 5689 b53d b31f be3a
00000250: 7809 153d 8ffa 123c 0696 113b 53de b0bc
00000260: 2e3b 263d c83a 0b3d 1792 16bd eeef d63c
00000270: 38bc ae3e 5565 4f3e aec6 983e e603 3f3e
00000280: 656c b13e 11f8 483e 3f4b 2d3e 1107 fcb9
00000290: 19c2 1a3e 362c 0d3e aabd 363e 0dc7 013e
000002a0: 82ce 2c3e 03e0 d03c 6bf9 9b3d ae99 053d
000002b0: 5e8d 0e3e 46ec bd3c a5f7 eabd c91d 1dbe
000002c0: 1528 0fbe 32e6 8ebd a740 ccbd 0b62 7ebd
000002d0: ee0d 433c f126 113d 1c88 3c3d 429f 0ebd
000002e0: ec89 783d f2bb 3ebd 1586 cd3d 9e9b 233c
000002f0: 6625 e33d 5e64 533c cb89 003e e92c 2abc
00000300: d591 083d 1397 0f3b 4405 973c 9835 d5bd
00000310: 91db 45bc 925f 81bd 3871 30bd 189e 80bc
00000320: f7a8 d0bd 1cea 5fbc a83c 26be 9acd da3c
00000330: c435 4dbd 9cb2 0cbb 6cd8 09be fa51 f8bd
00000340: 8346 85bd 8023 4fbc d666 65bd a94c 233d
00000350: a810 a13a c996 0b3e 38fe 55bd f936 cd3b
00000360: 4ed8 213d c52a a43d fcca 553e 5c00 c33d
00000370: 846f 243e 7de4 633d c7f4 073e 1d5e 753d
00000380: 4934 3f3e 7f97 143d 77f5 d93d 37dd b73d
00000390: 554e 7d3d cf5c 9b3d c00c fc3d 3d3e da3d
000003a0: 7986 173e 59cc 9e3d 711b 013d 3507 6c3c
000003b0: ea81 473e 5cb6 cc3d a48c 8d3c d0b9 ac3d
000003c0: ad56 843d f292 0c3d b77e 283d 421b 06bc
000003d0: bedf e13d a3dd 4f3a 6bda 533e 53e6 863c
000003e0: 9c00 483e 5e01 cd3d 4a7d 2e3e 8f72 c13d
000003f0: 85da 8ebc 5e57 64bd e15a 87bd b4ca a43d

res_stack0.res_unit1.conv1.bias f4 [32]
-0.40800473 -0.22232053 -0.6346986 -0.6033275 -0.50608915 -0.051787063 -0.18815944 -0.07297635
-0.14021507 -0.04529439 -0.006595309 -0.5501804 -0.40231425 -0.40884972 -0.14407963 -0.16630352
-0.0020132065 -0.1647661 -0.12516028 0.039061386 -0.1734359 -0.0675157 -0.15655811 -0.6558377
-0.1836384 -0.5107295 -0.13996573 -0.39888126 -0.10736024 -0.20401222 -0.027161565 -0.11243256
00000000: ffe5 d0be fea7 63be 9c7b 22bf ac73 1abf
00000010: 0f8f 01bf ac1e 54bd deac 40be a074 95bd
00000020: 8a94 0fbe 9c86 39bd 761d d8bb 9fd8 0cbf
00000030: 22fc cdbe c054 d1be 9c89 13be 784b 2abe
00000040: 00f0 03bb 72b8 28be 042a 00be d5fe 1f3d
00000050: 2e99 31be ac45 8abd c550 20be fbe4 27bf
00000060: b40b 3cbe 2bbf 02bf 2d53 0fbe 2a3a ccbe
00000070: afdf dbbd 94e8 50be ee81 debc 0b43 e6bd

res_stack0.res_unit1.conv2.weight f4 [32, 32, 3, 2]
-0.035345763 0.07656289 -0.034204092 0.123850174 0.010847522 0.07949022 0.06012282 0.11940026
0.09917196 0.01662534 0.11332449 0.0615912 0.1609901 -0.06170609 0.12747459 -0.0043093828
0.08033942 -0.04921225 -0.015388664 0.043220315 0.038111698 0.09575525 -0.13251403 0.011078905
-0.060801905 -0.039338455 -0.068511456 -0.023181356 -0.032048546 -8.37161e-05 0.055742167 0.06935457
0.052178536 -0.028082076 -0.10777849 0.050959323 0.07645658 -0.042005684 -0.09208084 -0.055998705
0.00059655117 0.09949216 -0.13103116 -0.011420685 -0.113429055 0.032648798 0.027996222 0.006740556
-0.015967112 0.09287753 -0.07052377 0.060185127 -0.08150397 -0.07979909 0.094864175 0.02303005
-0.031783152 0.010014924 -0.3856132 0.025864149 -0.20183589 0.09720655 0.124308154 0.0720862
-0.15940717 0.07948958 0.09645719 0.097234115 0.0068387236 -0.010706364 -0.042989306 0.16104698
0.05056586 0.03111942 0.03637761 0.09659697 -0.08852113 0.048327744 -0.008270446 -0.05810618
0.11376362 -0.061668016 0.105892204 -0.06062401 -0.08303976 -0.06930978 0.009483932 -0.014118369
-0.113678135 0.10261878 -0.07892071 0.07457712 0.02577271 0.03506391 0.05121848 -0.029212652
0.10552211 -0.01297 0.03415489 0.019144578 0.15480503 0.015756993 -0.20355242 -0.10532044
-0.21912296 -0.025248261 -0.17171675 0.030856485 -0.18361467 -0.06183304 -0.19939047 -0.0065489877
0.087539285 -0.0018799895 -0.14121135 0.13342088 -0.19528808 0.051433556 -0.15411521 0.106319204
-0.076795824 0.0035135415 -0.0010789533 -0.17275433 -0.09625095 -0.18976727 -0.031589072 -0.04510167
-0.1080161 0.092343435 0.13101232 -0.08242417 -0.21618582 0.041192718 -0.084762394 -0.07519843
-0.16229571 -0.07997353 -0.038014602 -0.018164482 -0.094416335 -0.079294145 -0.088950515 -0.14621378
0.08425645 -0.008507457 -0.1193732 0.009583692 0.06327354 -0.07440736 -0.018671175 0.13023531
-0.12901641 0.18674602 -0.062728055 0.14846893 0.13227801 -0.030541196 -0.33959672 -0.06373491
-0.15383929 -0.083433315 -0.030590612 0.031225404 -0.0042882417 -0.09396823 0.007994121 0.021466002
0.08081888 0.010884733 0.02554017 0.14217527 -0.3140782 -0.037531674 -0.0636183 0.007651154
-0.08636404 0.0304842 0.027968304 -0.14379273 -0.1338922 0.012559875 -0.0956085 0.16086161
0.06760379 0.041200895 0.04022421 0.038267888 -0.09169707 0.04675439 0.14935812 -0.008796459
-0.03567067 0.17608282 -0.10064263 0.174252 -0.12686464 0.18039085 0.009942483 0.045273982
-0.035102244 0.10228426 0.015496921 -0.00019468648 0.16679348 0.03948673 0.085611224 0.121132314
0.086615026 0.10661808 0.19506118 0.01550739 0.24996777 0.124097705 0.16788864 -0.028823663
-0.0026476216 -0.023602765 0.01497866 0.021594329 0.008833104 -0.006461413 -0.14356552 0.022471542
0.123618744 0.051332127 -0.05854861 0.08926446 0.1281193 -0.019629141 -0.061862957 -0.11382598
0.0032124824 0.09799725 -0.02144191 0.04344397 0.010852123 -0.012986584 0.016798647 -0.06972909
-0.0040350766 0.006195705 0.009332397 0.0074026133 -0.054978948 -0.056179736 -0.39410287 0.006459166
-0.12954006 0.01063587 0.1413801 -0.029534874 0.14193708 0.12312813 0.14629258 0.102061816
00000000: b8c6 10bd 01cd 9c3d 9719 0cbd 29a5 fd3d
00000010: ceb9 313c c5cb a23d 5943 763d 2088 f43d
00000020: ab1a cb3d dd31 883c ac16 e83d 0e47 7c3d
00000030: 97da 243e 86bf 7cbd b388 023e b935 8dbb
00000040: fe88 a43d c992 49bd bc20 7cbc c907 313d
00000050: 031b 1c3d 541b c43d c2b1 07be 4c84 353c
00000060: 6b0b 79bd 5c21 21bd bc4f 8cbd d4e6 bdbc
00000070: 5645 03bd bd90 afb8 e651 643d c509 8e3d
00000080: 29b9 553d 620c e6bc f8ba dcbd b9ba 503d
00000090: 4495 9c3d 270e 2cbd e194 bcbd e65e 65bd
000000a0: df61 1c3a 8cc2 cb3d 082d 06be d31d 3bbc
000000b0: 7e4d e8bd bfba 053d 5558 e53c e2df dc3b
000000c0: 76cd 82bc 9336 be3d c46e 90bd ae84 763d
000000d0: 8eeb a6bd b56d a3bd 2648 c23d 84a9 bc3c
000000e0: 0d2f 02bd a315 243c 186f c5be 0de1 d33c
000000f0: 11ae 4ebe 3a14 c73d 4695 fe3d eea1 933d
00000100: a23b 23be 6fcb a23d 598b c53d ae22 c73d
00000110: 5f17 e03b bf69 2fbc 8e15 30bd 80e9 243e
00000120: 261e 4f3d 27ee fe3c b000 153d a2d4 c53d
00000130: 914a b5bd 50f3 453d c480 07bc bf00 6ebd
00000140: e7fc e83d 9a97 7cbd 03de d83d e250 78bd
00000150: c010 aabd 49f2 8dbd 7e62 1b3c bb50 67bc
00000160: 15d0 e8bd cc29 d23d 2ea1 a1bd e4bb 983d
00000170: 4a21 d33c 2d9f 0f3d 78ca 513d 5f4f efbc
00000180: fa1b d83d 1f80 54bc ffe5 0b3d 17d5 9c3c
00000190: 3685 1e3e cf14 813c 0c70 50be 3eb2 d7bd
000001a0: c561 60be 71d5 cebc 84d6 2fbe bdc6 fc3c
000001b0: 7c05 3cbe a444 7dbd 042d 4cbe e498 d6bb
000001c0: cc47 b33d fb69 f6ba b599 10be 7c9f 083e
000001d0: 99f9 47be feab 523d 61d0 1dbe e2bd d93d
000001e0: 2147 9dbd 7243 663b aa6b 8dba 83e6 30be
000001f0: 381f c5bd 5a52 42be 8b63 01bd 87bc 38bd
00000200: 8c37 ddbd 8e1e bd3d 1828 063e 01ce a8bd
00000210: d15f 5dbe b2b9 283d e897 adbd a201 9abd
00000220: d930 26be 29c9 a3bd 33b5 1bbd aecd 94bc
00000230: 5a5d c1bd f864 a2bd b02b b6bd 11b9 15be
00000240: a58e ac3d dc62 0bbc f079 f4bd eb04 1d3c
00000250: 8f95 813d e362 98bd 4bf4 98bc 685c 053e
00000260: e11c 04be 593a 3f3e 9177 80bd 3d08 183e
00000270: e373 073e 8831 fabc 9fdf adbe 7387 82bd
00000280: 0c88 1dbe 16df aabd 2a99 fabc 6bcc ff3c
00000290: 6184 8cbb 6a72 c0bd c6f9 023c 78d9 af3c
000002a0: 5e84 a53d e155 323c 9e39 d13c 6596 113e
000002b0: dcce a0be d0ba 19bd 504a 82bd 88b6 fa3b
000002c0: a1df b0bd 00ba f93c c91d e53c 673e 13be
000002d0: 091b 09be efc7 4d3c 64ce c3bd e8b8 243e
000002e0: db73 8a3d 45c2 283d 24c2 243d cabe 1c3d
000002f0: accb bbbd 8881 3f3d 56f1 183e 061f 10bc
00000300: 691b 12bd 0e4f 343e b91d cebd 1e6f 323e
00000310: cee8 01be 61b8 383e cce5 223c 3671 393d
00000320: 5fc7 0fbd 697a d13d cce6 7d3c c124 4cb9
00000330: e9cb 2a3e d6bc 213d f054 af3d 3814 f83d
00000340: 3863 b13d 945a da3d 1ebe 473e b512 7e3c
00000350: 8df7 7f3e f026 fe3d 00eb 2b3e 9a1f ecbc
00000360: b883 2dbb 965a c1bc 0e69 753c 97e6 b03c
00000370: b9b8 103c 43ba d3bb d702 13be 3d16 b83c
00000380: d32b fd3d a341 523d abd0 6fbd 49d0 b63d
00000390: b531 033e 4bcd a0bc 0364 7dbd 981d e9bd
000003a0: 8388 523b c8b2 c83d f2a6 afbc 4ef2 313d
000003b0: 1acd 313c aec5 54bc 519d 893c 20ce 8ebd
000003c0: ad38 84bb 5705 cb3b e9e6 183c 9f91 f23b
000003d0: 9b31 61bd b91c 66bd dac7 c9be 69a7 d33b
000003e0: 26a6 04be 1242 2e3c f2c5 103e 1ff3 f1bc
000003f0: f457 113e 9a2a fc3d b9cd 153e c905 d13d

res_stack0.res_unit1.conv2.bias f4 [32]
-0.020696644 -0.08191059 -0.18245144 -0.084389806 -0.17063892 -0.03688883 -0.7005251 -0.17115635
-0.06250647 0.02614395 0.059448194 0.11249725 -0.09261034 0.04884008 -0.025870997 0.019225318
0.023527067 0.053258404 -0.03947459 -0.08318893 -0.09356066 -0.12338733 0.13568398 -0.10466209
0.13517536 -0.102672786 -0.08686111 -0.056506783 0.0022487934 -0.17543378 -0.04496585 0.04594144
00000000: 028c a9bc bdc0 a7bd 8dd4 3abe 90d4 acbd
00000010: f8bb 2ebe be18 17bd 9d55 33bf 9c43 2fbe
00000020: 6403 80bd d62b d63c f37f 733d f564 e63d
00000030: 7daa bdbd 890c 483d 6aef d3bc 6a7e 9d3c
00000040: d6bb c03c 7c25 5a3d 1cb0 21bd f55e aabd
00000050: bb9c bfbd 7fb2 fcbd bef0 0a3e 1459 d6bd
00000060: 696b 0a3e 1c46 d2bd 3de4 b1bd a873 67bd
00000070: 7e60 133b eaa4 33be 1c2e 38bd 172d 3c3d

res_stack0.res_unit2.conv1.weight f4 [32, 32, 3, 2]
-0.12341969 -0.07411334 -0.03618615 0.01178022 0.018612282 -0.018902337 -0.3021524 -0.0025215847
-0.12140146 -0.10725502 -0.063404255 0.00045825928 -0.02064402 0.022833524 0.0014344356 -0.0654452
-0.026755858 -0.03437681 -0.24935213 -0.018692879 -0.0017443993 0.021511402 0.057661425 -0.08964578
-0.008118882 0.032667246 0.12894693 -0.010984101 0.115187295 -0.030827213 -0.14405593 -0.17268614
-0.15195978 -0.2411176 -0.2407781 -0.15853912 -0.114133574 -0.07757692 0.07013971 0.03639032
0.0720879 -0.06037265 0.0048877583 -0.09952619 -0.21981096 -0.20735034 -0.0506009 -0.29352242
-0.04859406 -0.13177498 -0.053705085 -0.19695365 -0.15242527 -0.15757069 0.25323027 0.061516147
0.018456997 0.1267732 -0.016950427 0.013265298 -0.105656475 -0.022943286 -0.20928015 0.14398873
-0.16547465 -0.023723241 -0.014054081 0.011195171 -0.16874126 -0.21462668 -0.2077172 -0.26712132
-0.16020769 0.043546576 -0.14805642 0.10534454 -0.18388443 0.061606064 -0.30738783 -0.041919854
0.12026659 -0.0149587495 0.15176974 -0.16080944 0.006863597 0.09532807 0.0021712547 -0.11994428
-0.08770333 0.15033504 -0.33411404 -0.02044483 -0.07027685 0.035117026 -0.036797397 -0.09764487
-0.17823385 0.072906956 0.028652871 -0.09421384 -0.05369976 -0.0937081 -0.117257625 0.022838991
-0.11783076 -0.016100062 -0.031398278 -0.10543717 -0.24102473 -0.04188406 -0.07677439 -0.07072383
-0.13732162 -0.017253496 -0.3115526 -0.031865515 -0.23988205 0.045050364 -0.10387759 0.04392965
0.12043656 -0.076523654 -0.021230755 -0.14992698 0.019944761 -0.08987317 0.3743148 0.064879954
0.05188395 0.02665304 -0.023773635 0.04119552 0.19920808 0.02472286 0.113894224 -0.106300734
-0.15998171 0.1210776 -0.1476595 -0.08322872 0.030845113 -0.16791582 0.009732201 -0.12526713
-0.050161146 0.19446005 -0.06478827 0.06223977 0.2325348 -0.17150697 -0.21829061 -0.117068216
0.013920346 -0.09112289 -0.07176963 -0.027244452 -0.06349312 0.01774656 0.017040225 -0.071088664
0.03954253 -0.07255019 -0.12217719 -0.07137677 -0.1527657 -0.05278323 0.047242194 -0.025964713
-0.08689994 -0.038484167 0.19673903 0.07692265 -0.016628522 0.018872984 -0.26116475 -0.13066895
-0.11835781 -0.04183704 -0.09985601 0.050458472 -0.16107945 0.03300865 0.034429446 -0.033142053
-0.08020043 -0.14944573 -0.13125372 -0.16986136 -0.02967157 0.08383157 -0.09446451 0.11579562
-0.090185225 -0.12101018 0.045527782 -0.09895509 0.07964212 -0.27493447 -0.2676703 -0.07072085
-0.2534129 -0.06798718 -0.0045758877 -0.11696458 -0.079624064 -0.18667321 -0.07733184 -0.177096
-0.15820724 -0.24694526 -0.15119857 0.00059762574 0.089989915 -0.055825226 0.031255204 -0.18587735
-0.17046113 0.017287575 0.30372584 -0.05806361 -0.00667069 -0.14888124 0.20075813 0.03314912
0.041287776 0.018065376 -0.0015312049 0.030073084 -0.12245821 -0.10537934 -0.19754608 0.033987496
-0.21545178 -0.05277997 0.043517593 -0.11562019 -0.04897107 0.012022051 0.027627613 -0.011059151
0.00030021873 -0.047802802 -0.14911841 -0.11271703 -0.09488049 -0.17247964 -0.10931505 -0.11390532
0.031715754 -0.06238884 0.15038918 0.011965585 -0.14233553 -0.08403486 -0.026247589 -0.09091919
00000000: 76c3 fcbd bcc8 97bd ee37 14bd d301 413c
00000010: c978 983c 13d9 9abc b8b3 9abe 2c41 25bb
00000020: 54a1 f8bd 85a8 dbbd 17da 81bd 8542 f039
00000030: a61d a9bc 5f0d bb3c ac03 bc3a 2208 86bd
00000040: 1a2f dbbc b3ce 0cbd 2a56 7fbe cf21 99bc
00000050: 54a4 e4ba ae38 b03c 632e 6c3d 3598 b7bd
00000060: 0f05 05bc 17ce 053d aa0a 043e a9f6 33bc
00000070: 51e7 eb3d 5a89 fcbc 6683 13be a3d4 30be
00000080: 589b 1bbe 88e7 76be 898e 76be 1458 22be
00000090: ddbe e9bd a6e0 9ebd 69a5 8f3d 040e 153d
000000a0: d2a2 933d 5049 77bd 7d29 a03b 63d4 cbbd
000000b0: 2016 61be a653 54be e442 4fbd 9248 96be
000000c0: 910a 47bd 05f0 06be ddf9 5bbd 38ae 49be
000000d0: 5f15 1cbe 365a 21be 66a7 813e 5bf8 7b3d
000000e0: 2133 973c d5d0 013e 9fdb 8abc b156 593c
000000f0: 6c62 d8bd 8ff3 bbbc 894d 56be c871 133e
00000100: 3072 29be 3e57 c2bc 1743 66bc f36b 373c
00000110: 82ca 2cbe 19c7 5bbe d1b3 54be 20c4 88be
00000120: 7c0d 24be e55d 323d 1a9c 17be e1be d73d
00000130: 334c 3cbe a456 7c3d f061 9dbe 27b4 2bbd
00000140: 544e f63d 8b15 75bc 8769 1b3e 3bab 24be
00000150: 06e8 e03b 5d3b c33d 9c4b 0e3b 59a5 f5bd
00000160: ce9d b3bd 6ef1 193e ff10 abbe eb7b a7bc
00000170: 4fed 8fbd dfd6 0f3d deb8 16bd 09fa c7bd
00000180: ef82 36be 3e50 953d 6db9 ea3c 30f3 c0bd
00000190: 48f4 5bbd 08ea bfbd c424 f0bd d618 bb3c
000001a0: 4151 f1bd 47e4 83bc 7b9b 00bd 71ef d7bd
000001b0: 30cf 76be 9f8e 2bbd e43b 9dbd a8d7 90bd
000001c0: 0a9e 0cbe 3457 8dbc d383 9fbe 6a85 02bd
000001d0: a4a3 75be bb86 383d c6bd d4bd 94ef 333d
000001e0: 71a7 f63d 6fb8 9cbd 1fec adbc 7586 19be
000001f0: 3263 a33c 6d0f b8bd 31a6 bf3e c8df 843d
00000200: 4484 543d 7a57 da3c edc0 c2bc a2bc 283d
00000210: 34fd 4b3e 9887 ca3c 6041 e93d 33b4 d9bd
00000220: 3fd2 23be 88f7 f73d 0d34 17be d273 aabd
00000230: e4ae fc3c 20f2 2bbe cf73 1f3c 0746 00be
00000240: c675 4dbd 8920 473e b6af 84bd 21ef 7e3d
00000250: 9a1d 6e3e 869f 2fbe 9387 5fbe 76c1 efbd
00000260: 2a12 643c a39e babd f5fb 92bd c22f dfbc
00000270: ae08 82bd 3c61 913c f197 8b3c ef96 91bd
00000280: 59f7 213d 3295 94bd 0938 fabd fc2d 92bd
00000290: 9d6e 1cbe 3a33 58bd 0881 413d f3b3 d4bc
000002a0: 99f8 b1bd 93a1 1dbd f575 493e 9f89 9d3d
000002b0: 8a38 88bc 849b 9a3c 63b7 85be 15ce 05be
000002c0: 9465 f2bd 515d 2bbd 4f81 ccbd 8bad 4e3d
000002d0: 03f2 24be 1434 073d e405 0d3d f6bf 07bd
000002e0: 1f40 a4bd 4d08 19be 6067 06be 23f0 2dbe
000002f0: cb11 f3bc e3af ab3d 9c76 c1bd 4126 ed3d
00000300: 08b3 b8bd 2fd4 f7bd 577b 3a3d f7a8 cabd
00000310: 681b a33d 36c4 8cbe 150c 89be 18d6 90bd
00000320: 56bf 81be dd3c 8bbd 54f1 95bb 208b efbd
00000330: f111 a3bd 4327 3fbe 2860 9ebd a758 35be
00000340: 1401 22be 38df 7cbe ccd3 1abe fca9 1c3a
00000350: a24c b83d fea8 64bd 7505 003d a256 3ebe
00000360: 5d8d 2ebe ac9e 8d3c f481 9b3e 1cd4 6dbd
00000370: ce95 dabb 5374 18be 8a93 4d3e 5fc7 073d
00000380: 5f1d 293d d7fd 933c b6b2 c8ba d45b f63c
00000390: 5fcb fabd 20d1 d7bd 8549 4abe 7936 0b3d
000003a0: 649f 5cbe cf2f 58bd 813f 323d 47ca ecbd
000003b0: e495 48bd 23f8 443c 4e53 e23c 7131 35bc
000003c0: ad66 9d39 dfcc 43bd 7fb2 18be 30d8 e6bd
000003d0: b450 c2bd 819e 30be 92e0 dfbd 3147 e9bd
000003e0: 61e8 013d 718b 7fbd 9fff 193e 4d0b 443c
000003f0: 68c0 11be 781a acbd 2f05 d7bc d733 babd

res_stack0.res_unit2.conv1.bias f4 [32]
-0.011670047 -0.07353282 -0.13576864 -0.024059644 -0.06402776 0.03909953 0.0014687253 -0.0764422
-0.20673259 -0.048696183 -0.031607825 0.06569625 -0.073925555 0.01287509 0.100900084 -0.024149565
0.0468271 0.04182833 -0.021070974 -0.14713809 -0.067645706 0.1285472 0.054549593 -0.07945808
0.012794391 -0.14636639 0.009699511 -0.23146607 -0.13864471 0.07139848 -0.1844486 -0.07339345
00000000: ba33 3fbc 6098 96bd ef06 0bbe bb18 c5bc
00000010: fc20 83bd d426 203d 3e82 c03a ba8d 9cbd
00000020: b5b1 53be a675 47bd 3577 01bd c18b 863d
00000030: 4866 97bd 0bf2 523c b4a4 ce3d 4fd5 c5bc
00000040: c6cd 3f3d 2f54 2b3d 099d acbc 5eab 16be
00000050: d589 8abd e1a1 033e 656f 5f3d ebba a2bd
00000060: 919f 513c 12e1 15be b3ea 1e3c 7105 6dbe
00000070: e1f8 0dbe 5e39 923d 18e0 3cbe 4e4f 96bd

res_stack0.res_unit2.conv2.weight f4 [32, 32, 3, 2]
0.020021927 -0.06192812 -0.09312465 0.036632463 -0.030335965 0.036501814 0.0012244427 -0.06762567
-0.15143748 0.13629654 0.036051236 -0.023500098 -0.020080345 -0.28215188 0.050992217 -0.23197985
-0.22157884 -0.31103307 -0.22429 0.01657653 -0.27662492 0.037842326 -0.31856337 -0.00031007538
0.21914744 0.10469294 0.20018741 0.20884521 0.15185535 0.14264545 -0.23857336 -0.06395355
-0.13136971 -0.08260662 -0.5134521 -0.03523902 -0.27655807 -0.17587152 -0.21249089 -0.15245701
0.08623844 0.05722458 -0.053039487 -0.0021399232 0.059138365 0.08560176 0.0035009272 0.039290078
0.013571438 0.13773552 0.011830226 0.056164104 -0.106532544 0.028984733 0.07541759 0.08712999
0.07345241 0.12107415 0.045280434 0.13491322 0.059558585 -0.037853636 -0.05271551 -0.117470406
-0.028053364 0.023800518 -0.05462121 0.037878256 0.012894931 -0.008324035 -0.041435428 0.121526174
0.082733266 -0.004685586 -0.008862685 -0.012142297 0.1166158 -0.003055643 -0.019801209 0.068544485
0.07703214 0.06230574 0.0247744 0.0545749 -0.046427622 0.07706283 0.008201456 0.07757116
0.15340193 0.044882216 0.048623048 -0.075043425 0.093696035 0.013462019 -0.011993755 0.05013435
-0.13343851 0.021464664 0.1539026 0.027315963 -0.13547197 0.052760314 0.06920673 -0.004191934
-0.08233994 -0.12028334 -0.14044088 -0.020846752 -0.0058112442 0.013432957 0.09470417 0.081819884
-0.017825704 0.0033879206 -0.11301548 -0.059322223 -0.07202824 -0.10034145 -0.0381134 -0.16368686
0.22718555 0.07607711 0.25724065 0.15258227 0.17956354 0.093728274 -0.024501609 0.1549759
-0.025031583 0.08205564 0.016808173 0.12641722 0.032431982 -0.014159587 -0.09790559 -0.047119454
-0.28514472 -0.10226153 0.040641416 0.13278387 0.05667865 -0.024382139 -0.17543082 0.010102265
-0.17814563 -0.10117239 -0.03765417 -0.030205749 0.069093786 0.10616966 -0.16235591 -0.15902361
-0.15153031 -0.090573534 -0.06263518 -0.12005664 -0.08624042 0.12823392 -0.12009542 0.13749641
0.0043533007 -0.050263878 -0.2620425 -0.13246027 -0.10039612 -0.12248496 -0.17935356 -0.032489806
-0.021529935 0.062988736 -0.12589704 -0.01864451 -0.12817833 -0.06466808 0.01433981 0.1034462
0.094670184 0.1627204 -0.059225526 0.09913151 -0.0427279 0.06896296 -0.00844371 -0.041700408
-0.041074406 0.095906965 0.051230665 -0.014049554 0.041877225 -0.012634217 0.09854238 0.020822907
-0.029638775 0.030112788 -0.112527035 0.0852228 -0.06843695 -0.23631434 -0.067772396 0.06480958
-0.25466853 0.17799678 0.086979516 -0.04059359 0.02520435 -0.009428446 0.19033866 -0.010353656
0.07168503 -0.092247896 -0.021290291 -0.04490859 -0.07110795 0.12009263 -0.107170634 0.14366165
-0.19496164 0.052389365 -0.03661572 0.04518572 -0.14419715 0.14495113 -0.18836072 0.07008957
-0.2311925 0.15093215 -0.29434586 0.14916751 0.022210589 0.05468267 0.09702711 -0.0075846985
-0.1300203 -0.024249995 -0.021621764 -0.008643266 0.095856674 0.17110242 -0.011914719 0.10809644
-0.06739845 -0.14062731 0.0041175024 -0.13720413 0.026782837 -0.013006496 -0.09655517 0.12502097
-0.0033100524 0.06351821 0.008588502 0.12504417 -0.07935589 0.056909036 -0.14700188 -0.01813693
00000000: 0605 a43c 57a8 7dbd 23b8 bebd ec0b 163d
00000010: 2183 f8bc ed82 153d 7b7d a03a 547f 8abd
00000020: 6d12 1bbe 5291 0b3e 76aa 133d 4783 c0bc
00000030: 897f a4bc 3676 90be 37dd 503d 208c 6dbe
00000040: 90e5 62be ba3f 9fbe 47ac 65be 81cb 873c
00000050: c8a1 8dbe 8e00 1b3d bd1a a3be 9d91 a2b9
00000060: 3068 603e 4169 d63d eefd 4c3e 85db 553e
00000070: f87f 1b3e a611 123e 934c 74be 14fa 82bd
00000080: c885 06be a92d a9bd 9971 03bf ca56 10bd
00000090: 0599 8dbe aa17 34be 3697 59be b11d 1cbe
000000a0: c79d b03d 5264 6a3d ef3f 59bd f43d 0cbb
000000b0: 123b 723d fa4f af3d d06f 653b a2ee 203d
000000c0: bd5a 5e3c 8a0a 0d3e 90d3 413c 550c 663d
000000d0: bc2d dabd 6471 ed3c 8a74 9a3d 3571 b23d
000000e0: 386e 963d b9f5 f73d fa77 393d b126 0a3e
000000f0: b4f3 733d 6a0c 1bbd 38ec 57bd 5394 f0bd
00000100: 2bd0 e5bc 4ef9 c23c 7dba 5fbd 3b26 1b3d
00000110: 4345 533c 8961 08bc 32b8 29bd b7e2 f83d
00000120: 0f70 a93d 8b89 99bb cc34 11bc 7cf0 46bc
00000130: 44d4 ee3d 2f41 48bb 2536 a2bc 0d61 8c3d
00000140: 07c3 9d3d 4e34 7f3d aff3 ca3c ee89 5f3d
00000150: e42a 3ebd 1ed3 9d3d 665f 063c a1dd 9e3d
00000160: 6515 1d3e 6ad6 373d f628 473d 5eb0 99bd
00000170: b5e3 bf3d cd8f 5c3c 7481 44bc ad59 4d3d
00000180: 1ba4 08be aad6 af3c a598 1d3e bac5 df3c
00000190: 2ab9 0abe 331b 583d 42bc 8d3d 7e5c 89bb
000001a0: d8a1 a8bd 1d57 f6bd bccf 0fbe cfc6 aabc
000001b0: 406c bebb e815 5c3c 43f4 c13d 2f91 a73d
000001c0: 3607 92bc e007 5e3b a974 e7bd dcfb 72bd
000001d0: 8b83 93bd d17f cdbd cc1c 1cbd 879d 27be
000001e0: 54a3 683e 51ce 9b3d 0cb5 833e 873e 1c3e
000001f0: 81df 373e 9cf4 bf3d 99b7 c8bc 01b2 1e3e
00000200: 090f cdbc ca0c a83d 4bb1 893c 8473 013e
00000210: 66d7 043d 9dfd 67bc ba82 c8bd 5400 41bd
00000220: 7dfe 91be 7e6e d1bd 9d77 263d 7ff8 073e
00000230: df27 683d 0dbd c7bc 23a4 33be f883 253c
00000240: cf6b 36be 7833 cfbd 423b 1abd 0c72 f7bc
00000250: 0b81 8d3d 7b6f d93d a140 26be 16d7 22be
00000260: c32a 1bbe 9e7e b9bd e046 80bd 41e0 f5bd
00000270: d19e b0bd c14f 033e 96f4 f5bd dccb 0c3e
00000280: 22a6 8e3b 7fe1 4dbd 6f2a 86be aaa3 07be
00000290: 7b9c cdbd 65d9 fabd 76a8 37be 0814 05bd
000002a0: 8c5f b0bc 3d00 813d 27eb 00be 5fbc 98bc
000002b0: 2e41 03be b370 84bd 86f1 6a3c 9adb d33d
000002c0: 71e2 c13d 2da0 263e 7796 72bd 7605 cb3d
000002d0: 7303 2fbd 743c 8d3d 7d57 0abc 0cce 2abd
000002e0: a33d 28bd df6a c43d 3fd7 513d 1a30 66bc
000002f0: 7487 2b3d bfff 4ebc 96d0 c93d cd94 aa3c
00000300: 04cd f2bc 18af f63c 9374 e6bd 4b89 ae3d
00000310: ac28 8cbd 63fc 71be 41cc 8abd e3ba 843d
00000320: ea63 82be ca44 363e 5122 b23d 7745 26bd
00000330: 5a79 ce3c c579 1abc 23e8 423e 61a2 29bc
00000340: 9acf 923d 77ec bcbd fa68 aebc 12f2 37bd
00000350: 0ba1 91bd 20f3 f53d 477c dbbd 0a1c 133e
00000360: 06a4 47be 3b96 563d 5dfa 15bd a914 393d
00000370: 6ba8 13be 126e 143e a2e1 40be 1f8b 8f3d
00000380: babd 6cbe f58d 1a3e 80b4 96be 5ebf 183e
00000390: fbf2 b53c effa 5f3d 26b6 c63d 1089 f8bb
000003a0: 0b24 05be eda7 c6bc 2020 b1bc 7c9c 0dbc
000003b0: 8150 c43d 7935 2f3e f435 43bc ab61 dd3d
000003c0: 3308 8abd 9b00 10be 1dec 863b 3d7f 0cbe
000003d0: ae67 db3c 3319 55bc b8be c5bd 7f05 003e
000003e0: 77ed 58bb d615 823d cab6 0c3c 940b 003e
000003f0: 5785 a2bd 7319 693d a987 16be e693 94bc

res_stack0.res_unit2.conv2.bias f4 [32]
-0.057816017 -0.022572726 -0.14564885 -0.13270482 -0.17054309 -0.14252236 0.07510261 -0.08430685
-0.17387408 -0.10018158 -0.01727948 -0.026321556 -0.023699101 0.037860107 0.067897424 -0.045738693
-0.06241461 0.07853564 -0.06370806 -0.02943525 -0.10253539 -0.09497937 -0.057268817 0.04784229
-0.010180414 -0.07817585 0.04918922 -0.12483472 -0.23179807 0.09037696 -0.07512172 -0.052219216
00000000: 7dd0 6cbd 70ea b8bc f924 15be c6e3 07be
00000010: d9a2 2ebe 62f1 11be 66cf 993d 12a9 acbd
00000020: 0c0c 32be 002c cdbd b28d 8dbc 4ea0 d7bc
00000030: 9e24 c2bc 3313 1b3d ce0d 8b3d 7f58 3bbd
00000040: 76a6 7fbd 4bd7 a03d 5f79 82bd 3222 f1bc
00000050: 13fe d1bd 8b84 c2bd b592 6abd 47f6 433d
00000060: c0cb 26bc a91a a0bd a37a 493d 58a9 ffbd
00000070: 795c 6dbe 8e17 b93d 6bd9 99bd d1e3 55bd

res_stack1.conv1x1.weight f4 [32, 32, 1, 1]
-0.012572916 0.05068508 0.20694365 0.080052 0.023473766 -0.122534566 -0.19618437 -0.0055192388
-0.029563798 -0.0545241 -0.182797 0.051625036 0.05048891 -0.12335911 -0.054015405 0.21557061
-0.15027164 0.019702556 0.01912715 -0.19411579 0.25534225 0.25940317 -0.1718654 -0.32652488
-0.111193545 -0.020366956 0.63240606 0.247973 0.4108466 -0.017073773 0.14067592 -0.061170787
0.0061656535 -0.20618056 0.054110795 0.052273296 -0.21457617 -0.15143523 0.2746967 0.12724845
-0.14286378 -0.0053677014 0.032699782 0.23255675 -0.019373864 0.26530036 -0.049190458 -0.19701585
-0.009788266 -0.08210662 -0.04592552 -0.008911267 -0.23863232 0.11616955 0.22954631 -0.005550304
0.17066556 0.117964506 -0.070841014 -0.16862465 0.08528542 -0.059280515 -0.16220616 0.16321227
0.117524974 -0.081740245 -0.04620055 -0.043810014 -0.0015902598 -0.23019227 0.13342834 -0.060464386
-0.3696468 -0.37171677 -0.07936636 -0.00015240225 0.24205038 -0.31675264 0.121479444 -0.16797026
-0.10745087 0.078310974 -0.12988433 -0.09920675 0.14352505 0.041008607 0.092214726 -0.07197371
-0.019836048 0.024322879 -0.00982114 -0.040310837 0.07021646 -0.20225869 -0.15905504 -0.036079463
0.22888386 -0.09658862 -0.08640735 -0.10527687 -0.13229918 0.10123165 -0.059266124 -0.040195066
0.015598797 -0.07896739 0.17525555 -0.10752826 0.10452676 -0.099909164 0.15512773 0.021386247
0.07174687 0.07914259 -0.027059246 -0.18566485 -0.008191279 -0.065400295 0.1788081 0.1571967
-0.16555788 0.15355009 -0.0136779295 -0.100218385 -0.014368747 -0.052802417 -0.13900603 -0.017709251
-0.20444964 -0.0873406 0.11763199 0.0662513 -0.021302415 -0.18997668 -0.091079965 0.14693195
-0.07365702 -0.03743401 0.0008082843 0.016601428 -0.31904855 0.25644544 -0.24868828 0.022160023
-0.076260895 0.22107862 -0.039571717 -0.14895016 -0.12374715 -0.03980942 -0.24210697 -0.07836602
-0.10741223 -0.3884643 0.2947232 0.13146915 -0.04731477 0.13717298 0.17156604 0.028797437
0.23658003 -0.3644887 0.13505247 0.05279561 -0.12658301 -0.03080325 -0.040901843 0.2224249
0.1581929 -0.1082743 -0.23469344 -0.25945613 -0.13497858 -0.060913466 0.19560947 0.0063654124
0.22034478 -0.06326299 0.12529911 -0.06594947 0.12681092 -0.043096438 -0.000311015 -0.025470244
-0.019043883 0.0021532546 0.18114357 0.1915317 -0.16404 0.04030404 -0.16608933 -0.028666636
0.19620766 -0.17862143 -0.088777155 -0.042940907 -0.009162434 0.25198835 0.03584422 0.0305441
-0.05727457 -0.3845878 -0.12570734 -0.113946326 -0.13078833 -0.14714245 0.17052655 0.0050371657
0.22962388 -0.018588673 0.11263806 -0.0019950394 -0.03378056 0.11022964 0.08395054 -0.16250932
-0.11938924 0.064938754 0.0864781 0.24334705 0.036201578 -0.15053685 -0.149384 0.006834384
0.09774266 0.15418811 -0.13597043 -0.08549463 0.24484132 -0.13626896 -0.052468214 0.044236884
0.17172271 -0.066422686 -0.006563661 0.124604866 -0.1581562 -0.22903055 -0.12031774 0.13300008
0.05458132 0.035023145 -0.019579064 -0.14791699 0.25062823 0.08257228 -0.039744806 0.15483119
-0.19807217 -0.21057546 0.16253422 0.13484895 -0.15051763 -0.05301506 -0.21424112 -0.10497071
00000000: a2fe 4dbc 299b 4f3d 09e9 533e 4ef2 a33d
00000010: 0e4c c03c 67f3 fabd 8ee4 48be bbda b4bb
00000020: c72f f2bc aa54 5fbd 232f 3bbe c674 533d
00000030: 76cd 4e3d b3a3 fcbd 423f 5dbd 8bbe 5c3e
00000040: cfe0 19be 4167 a13c 8ab0 9c3c 4ac6 46be
00000050: 38bc 823e 7ed0 843e 7cfd 2fbe 452e a7be
00000060: 71b9 e3bd 9ad8 a6bc 5de5 213f a2ec 7d3e
00000070: 7c5a d23e 4cde 8bbc 590d 103e 388e 7abd
00000080: 4009 ca3b ff20 53be 48a3 5d3d 861c 563d
00000090: dbb9 5bbe d611 1bbe 0ca5 8c3e 6b4d 023e
000000a0: e24a 12be 8be3 afbb 35f0 053d 5b23 6e3e
000000b0: f0b5 9ebc 73d5 873e ef7b 49bd 86be 49be
000000c0: f75e 20bc 8427 a8bd 661c 3cbd 9000 12bc
000000d0: 085c 74be 4dea ed3d 300e 6b3e 53df b5bb
000000e0: f4c2 2e3e 6097 f13d 1815 91bd f1ab 2cbe
000000f0: 1faa ae3d 20d0 72bd 5f19 26be 1e21 273e
00000100: efb0 f03d 6e67 a7bd ca3c 3dbd 2172 33bd
00000110: 4470 d0ba 86b7 6bbe 70a1 083e 81a9 77bd
00000120: 5842 bdbe a951 bebe d58a a2bd 2bce 1fb9
00000130: 0edc 773e 672d a2be 37ca f83d 6500 2cbe
00000140: 340f dcbd 8161 a03d 6600 05be e92c cbbd
00000150: 3bf8 123e a4f8 273d 13db bc3d f466 93bd
00000160: 357f a2bc c640 c73c d9e8 20bc fa1c 25bd
00000170: a6cd 8f3d e71c 4fbe 53df 22be 0fc8 13bd
00000180: 8860 6a3e 41d0 c5bd 56f6 b0bd 669b d7bd
00000190: 7079 07be 8a52 cf3d 09c1 72bd 95a3 24bd
000001a0: 1992 7f3c a8b9 a1bd 3176 333e c737 dcbd
000001b0: 2012 d63d 2d9d ccbd ced9 1e3e 3632 af3c
000001c0: 06f0 923d 8315 a23d 5aab ddbc ed1e 3ebe
000001d0: b734 06bc 97f0 85bd 7819 373e 2cf8 203e
000001e0: 0188 29be 3c3c 1d3e 6519 60bc 4c3f cdbd
000001f0: e56a 6bbc 5947 58bd 9957 0ebe fe12 91bc
00000200: 3f5b 51be a1df b2bd 0ae9 f03d c3ae 873d
00000210: 6782 aebc 3f89 42be 2288 babd 5475 163e
00000220: 7ed9 96bd 6854 19bd 0be3 533a b8ff 873c
00000230: 555a a3be d14c 833e 24a8 7ebe f088 b53c
00000240: ac2e 9cbd 6f62 623e f415 22bd 6486 18be
00000250: 256f fdbd 340f 23bd e4ea 77be 5d7e a0bd
00000260: f1fa dbbd cbe4 c6be f6e5 963e d99f 063e
00000270: 22cd 41bd 1377 0c3e 02af 2f3e 9ae8 eb3c
00000280: 0942 723e 439e babe 324b 0a3e 3640 583d
00000290: fa9e 01be 1957 fcbc b188 27bd 5ac3 633e
000002a0: 52fd 213e ebbe ddbd 7a53 70be 6fd7 84be
000002b0: d337 0abe 6680 79bd d94d 483e f394 d03b
000002c0: 10a2 613e 0790 81bd 694e 003e 8410 87bd
000002d0: b9da 013e e485 30bd ba0f a3b9 f9a6 d0bc
000002e0: eb01 9cbc 9e1d 0d3b b37d 393e e320 443e
000002f0: 1afa 27be d915 253d 5213 2abe 4bd6 eabc
00000300: a9ea 483e 89e8 36be ccd0 b5bd cee2 2fbd
00000310: 091e 16bc 9e04 813e 64d1 123d 9f37 fa3c
00000320: bd98 6abd b1e8 c4be 6db9 00be b15c e9bd
00000330: 60ed 05be 83ac 16be 839e 2e3e cf0e a53b
00000340: 8622 6b3e 4647 98bc c8ae e63d 35bf 02bb
00000350: 7c5d 0abd 14c0 e13d 43ee ab3d d868 26be
00000360: 5982 f4bd 9cfe 843d 6e1b b13d f82f 793e
00000370: 1b48 143d 5526 1abe 1ff8 18be f8f2 df3b
00000380: 4e2d c83d 7de3 1d3e d53b 0bbe cf17 afbd
00000390: afb7 7a3e 178a 0bbe e9e8 56bd bc31 353d
000003a0: 14d8 2f3e 9e08 88bd fb13 d7bb d630 ff3d
000003b0: b3f3 21be fc86 6abe 2669 f6bd 2c31 083e
000003c0: aa90 5f3d 6e74 0f3d 4664 a0bc 8d77 17be
000003d0: 5852 803e a81b a93d 73cb 22bd 118c 1e3e
000003e0: 6ed3 4abe 18a1 57be 5f6f 263e d815 0a3e
000003f0: 4b21 1abe 5226 59bd 0662 5bbe e2fa d6bd

res_stack1.conv1x1.bias f4 [32]
-0.10367634 0.11160132 0.1923689 0.045793504 0.037727337 0.18536083 -0.21608895 -0.008773257
-0.1259233 0.116029546 -0.029379554 -0.19237866 -0.31102332 -0.0014184662 0.07002371 -0.25338173
0.01977059 -0.04620811 0.030060235 -0.025574349 0.10410578 -0.19888096 0.2076605 -0.010600138
-0.05231225 -0.008188456 0.019689947 -0.21511051 0.17768973 -0.1926525 -0.09916883 -0.10434502
00000000: 4354 d4bd 3c8f e43d 5afc 443e f891 3b3d
00000010: fb87 1a3d 3bcf 3d3e 6c46 5dbe b5bd 0fbc
00000020: 0af2 00be e6a0 ed3d 64ad f0bc e9fe 44be
00000030: 733e 9fbe d4eb b9ba 9768 8f3d 40bb 81be
00000040: eff5 a13c b744 3dbd e240 f63c 4c81 d1bc
00000050: 6935 d53d 73a7 4bbe f4a4 543e 34ac 2dbc
00000060: 5f45 56bd e028 06bc d04c a13c ee45 5cbe
00000070: 4cf4 353e b246 45be 0719 cbbd d8b2 d5bd

res_stack1.res_unit1.conv1.weight f4 [32, 32, 3, 1]
0.17278276 0.006706471 0.25060907 -0.25149378 0.009995348 -0.28688517 0.043111317 0.031782232
0.053677764 -0.16545707 -0.070130475 -0.07780016 0.3067389 0.030102395 0.082329884 -0.14919502
-0.05780932 -0.2398069 -0.09151759 -0.046118315 -0.14129245 0.20381242 -0.028360436 0.33681878
-0.00729693 -0.11405245 -0.025159035 0.072172165 -0.083006404 -0.03061083 0.033388093 0.0069421814
0.1332225 0.060479313 0.018199349 0.023970488 -0.11783317 -0.16357484 0.0032691974 -0.13241188
-0.046962664 -0.13221723 0.24525988 0.013539396 0.1145725 -0.16088344 -0.09594821 -0.2253273
0.06934983 0.13074195 0.12841661 -0.024018684 0.05198287 -0.08812899 0.19271874 0.13054717
0.06500746 -0.052502885 -0.049866907 0.072285764 0.31219503 0.18864584 0.18887344 -0.16520694
0.03333234 -0.15241398 0.10594974 -0.17416023 0.10703179 -0.38507524 -0.09624444 -0.055580825
0.07160585 -0.011428423 -0.020573467 -0.1994323 -0.22191411 -0.196051 0.15351842 0.043020636
0.13859633 -0.18127362 -0.004207035 -0.02100261 0.08495956 0.021925125 0.15716486 0.10845038
0.040385466 0.093354814 0.20348838 0.0806059 0.26948422 0.124589875 -0.06348733 -0.01795857
-0.12990114 0.05239384 0.00922008 0.11915902 -0.017479263 -0.1206052 0.09874295 0.06005962
0.04136534 0.17045711 -0.16151506 -0.116395615 -0.09630039 -0.10199532 -0.033667363 0.3059033
-0.08390358 -0.008601888 0.3209839 0.13363947 0.0068768156 -0.15232438 0.04375938 0.08051381
-0.15203552 -0.018722957 -0.13208577 0.13981831 -0.088056564 0.041045688 -0.14799607 -0.04557597
0.07424039 -0.16466025 -0.051007297 -0.17505832 -0.10262424 -0.15082656 -0.15118167 0.037666943
-0.14636011 -0.2057683 -0.042266257 0.021402914 -0.022879008 -0.049602844 -0.045881998 -0.09884255
-0.044539627 -0.05073891 -0.17309286 -0.14289126 0.022784485 0.09782543 0.10520153 -0.0062332437
-0.043765098 0.029847957 0.0634978 -0.052827727 0.08770435 -0.03617249 -0.08401507 -0.003998103
-0.041989356 -0.062440842 -0.19457683 0.065282024 0.17308082 -0.045644738 -0.016438205 -0.12224433
-0.0035785164 0.021540672 -0.029736832 -0.012852042 -0.1034236 -0.0051014596 -0.18446213 0.014141595
0.17089063 0.23546615 0.030082334 -0.036001768 -0.11593642 0.034421608 0.015311356 -0.14613923
-0.006129482 0.0945501 0.01691675 0.1776007 0.16822194 -0.14631726 0.14835805 0.06202546
0.07998801 0.10445323 0.1275901 -0.099566594 0.013138515 0.008979914 -0.033129316 0.13277544
0.02088982 -0.19477442 -0.056209967 0.0033373188 0.04970432 0.10353539 -0.039724763 0.011867192
-0.08413273 -0.05595525 0.122755826 0.14509444 0.076183796 -0.007984673 0.010054539 -0.013171429
-0.17820424 0.019855147 0.010516187 0.062403906 0.03361656 -0.06473789 -0.07906384 0.1370622
0.09174671 0.19009583 0.09388175 0.12288484 0.17819013 0.006622808 0.11507594 -0.0250739
-0.035571516 0.07134286 0.12524095 0.025583062 0.039936524 -0.08897632 -0.16346838 0.029881826
-0.0318061 -0.033521872 -0.10129508 0.1420575 -0.05978718 -0.041929826 -0.007315375 0.28494686
0.106682226 0.041053347 -0.11956394 0.15159394 0.054312944 -0.049964678 0.15155336 -0.2321383
00000000: f7ed 303e f5c1 db3b d54f 803e cbc3 80be
00000010: 87c3 233c 9de2 92be 7e95 303d 162e 023d
00000020: 37dd 5b3d 946d 29be 91a0 8fbd b155 9fbd
00000030: e20c 9d3e 4c99 f63c 929c a83d 94c6 18be
00000040: 77c9 6cbd f18f 75be 936d bbbd 8fe6 3cbd
00000050: f8ae 10be 34b4 503e 2554 e8bc 8373 ac3e
00000060: 161b efbb 5594 e9bd 521a cebc 00cf 933d
00000070: 43ff a9bd 90c3 fabc f4c1 083d 3d7b e33b
00000080: 7b6b 083e 28b9 773d cd16 953c c25d c43c
00000090: 8452 f1bd 2a80 27be 0840 563b fb96 07be
000000a0: ec5b 40bd f463 07be 6825 7b3e 58d4 5d3c
000000b0: fda4 ea3d a1be 24be 7f80 c4bd 33bc 66be
000000c0: 4907 8e3d 38e1 053e a57f 033e d5c2 c4bc
000000d0: fdeb 543d f97c b4bd 1058 453e 28ae 053e
000000e0: a222 853d 440d 57bd 3e41 4cbd 8f0a 943d
000000f0: 07d8 9f3e 602c 413e 0a68 413e 022c 29be
00000100: 7e87 083d 6912 1cbe 2dfc d83d 0f57 32be
00000110: 7c33 db3d 9528 c5be ce1b c5bd b8a8 63bd
00000120: 16a6 923d 483e 3bbc b089 a8bc fb37 4cbe
00000130: 743d 63be 98c1 48be ef33 1d3e 6836 303d
00000140: 32ec 0d3e cb9f 39be 2bdb 89bb aa0d acbc
00000150: 47ff ad3d 529c b33c d3ef 203e 3c1b de3d
00000160: 3b6b 253d cf30 bf3d 425f 503e b514 a53d
00000170: d6f9 893e fa28 ff3d a505 82bd da1d 93bc
00000180: ce04 05be ec9a 563d d20f 173c a509 f43d
00000190: ac30 8fbc dcff f6bd be39 ca3d 1301 763d
000001a0: b46e 293d 4f8c 2e3e 3464 25be d360 eebd
000001b0: 2439 c5bd ece2 d0bd cae6 09bd 5b9f 9c3e
000001c0: a4d5 abbd efee 0cbc 0058 a43e c9d8 083e
000001d0: e956 e13b ecfa 1bbe 093d 333d 6de4 a43d
000001e0: 33af 1bbe e360 99bc 7e41 07be 882c 0f3e
000001f0: 0057 b4bd 861f 283d 488c 17be dead 3abd
00000200: 580b 983d b29c 28be 07ed 50bd 7d42 33be
00000210: a82c d2bd 4772 1abe 5ecf 1abe a748 1a3d
00000220: 6ddf 15be edb4 52be 621f 2dbd 2a55 af3c
00000230: c26c bbbc 5a2c 4bbd c3ee 3bbd f66d cabd
00000240: 2f6f 36bd 9ad3 4fbd 413f 31be 1652 12be
00000250: 87a6 ba3c b358 c83d e673 d73d 3d40 ccbb
00000260: 0843 33bd b483 f43c 220b 823d e361 58bd
00000270: 579e b33d 9b29 14bd 1810 acbd 8502 83bb
00000280: 08fd 2bbd f8c1 7fbd 263f 47be 95b2 853d
00000290: 193c 313e faf5 3abd 6aa9 86bc 3c5b fabd
000002a0: 8b85 6abb 1076 b03c a89a f3bc 5f91 52bc
000002b0: c1cf d3bd 252a a7bb a4e3 3cbe 26b2 673c
000002c0: f4fd 2e3e 0a1e 713e 3a6f f63c 9776 13bd
000002d0: 1370 edbd acfd 0c3d 7bdc 7a3c 86a5 15be
000002e0: d2d9 c8bb 7ca3 c13d ff94 8a3c f5dc 353e
000002f0: 5f42 2c3e 31d4 15be 2ceb 173e 690e 7e3d
00000300: c1d0 a33d 93eb d53d fba6 023e 92e9 cbbd
00000310: ed42 573c 7d20 133c 9bb2 07bd 49f6 073e
00000320: 2121 ab3c f272 47be 6c3c 66bd ebb6 5a3b
00000330: c296 4b3d 5d0a d43d 6fb6 22bd 9c6e 423c
00000340: c84d acbd 5531 65bd 6867 fb3d a393 143e
00000350: 4006 9c3d 25d2 02bc cbbb 243c facc 57bc
00000360: 2c7b 36be 43a7 a23c 164c 2c3c 3d9b 7f3d
00000370: 85b1 093d 4d95 84bd 39ec a1bd 095a 0c3e
00000380: b3e5 bb3d 7ba8 423e 1345 c03d 0cab fb3d
00000390: 7977 363e 2404 d93b efac eb3d c867 cdbc
000003a0: 70b3 11bd 351c 923d 2a3f 003e 9293 d13c
000003b0: 7b94 233d 3839 b6bd 4164 27be bbca f43c
000003c0: 1d47 02bd 3b4e 09bd cb73 cfbd 8577 113e
000003d0: 67e3 74bd 9cbe 2bbd d0b5 efbb 8ee4 913e
000003e0: 367c da3d 8e27 283d f0dd f4bd 713b 1b3e
000003f0: 4077 5e3d c3a7 4cbd ce30 1b3e aab5 6dbe

res_stack1.res_unit1.conv1.bias f4 [32]
-0.18009852 -0.016453987 -0.2701177 -0.019009994 -0.12550494 -0.105001114 -0.27248102 -0.06929264
-0.15605846 -0.042936932 -0.25157776 0.13606313 -0.28127083 -0.18832254 -0.17668901 -0.053252503
-0.028444016 -0.1608613 -0.16412021 0.009070555 0.06450421 -0.67876977 -0.2247794 0.07621589
-0.063168645 0.0878621 -0.16803096 0.036153518 -0.020833358 -0.13530551 0.14551684 -0.051709868
00000000: bf6b 38be 83ca 86bc de4c 8abe d9ba 9bbc
00000010: 5e84 00be d30a d7bd a282 8bbe 4de9 8dbd
00000020: cacd 1fbe a3de 2fbd cdce 80be 2254 0b3e
00000030: bb02 90be a0d7 40be f7ed 34be 4c1f 5abd
00000040: 6d03 e9bc d3b8 24be 210f 28be aa9c 143c
00000050: c91a 843d dbc3 2dbf 922c 66be 1417 9c3d
00000060: 905e 81bd 0bf1 b33d 4f10 2cbe b615 143d
00000070: b8aa aabc 878d 0abe 5e02 153e bacd 53bd

res_stack1.res_unit1.conv2.weight f4 [32, 32, 3, 1]
-0.043380123 -0.06619248 -0.16287251 0.116085924 0.06818399 0.22193334 -0.061206166 -0.136641
-0.16274114 -0.17361817 0.01943212 -0.08206263 0.029479945 0.14714581 0.27947965 0.034733895
-0.0052309684 -0.11432919 0.15003659 0.017949922 -0.048629623 -0.042993 -0.15940297 -0.04314541
0.16082843 0.15177594 -0.17891417 0.108277544 0.13866594 -0.028589016 -0.14067964 0.22544606
-0.046051636 -0.008290631 -0.07409702 -0.123711444 -0.094996676 -0.012133165 -0.26032045 0.218614
-0.06535534 -0.12708265 0.094273366 0.1293854 -0.092963964 -0.036656965 0.16256952 0.3315406
-0.1739002 -0.009474913 0.02603071 0.056596767 0.20977233 -0.07202986 -0.08437763 0.0020591465
0.004368663 0.053686704 0.14549853 0.1682256 -0.07937122 0.11355786 0.025305377 -0.04848205
-0.039498445 -0.068144426 0.013048192 0.02783069 0.09651974 0.06620391 0.25788 -0.067206174
-0.108292185 -0.10286343 -0.3184499 -0.027553696 0.084507 0.16202867 -0.00678972 0.007984483
0.12958135 0.04498765 -0.09865257 -0.21624209 -0.07817239 0.07355987 0.15377544 -0.09485402
-0.08775252 0.061281282 -0.1705373 -0.059357338 -0.11903258 0.10772571 0.2733916 0.13910548
-0.03478096 -0.19334508 -0.11103164 -0.14154458 -0.062430553 -0.23035239 0.16314411 -0.16728881
-0.15484488 0.107284546 0.15328102 0.02962616 0.0333573 0.04499727 -0.008678751 -0.013565226
0.07708522 0.028875671 -0.1099342 -0.32884824 -0.20190893 -0.029495154 -0.097412586 0.13052616
-0.10269707 0.005722094 -0.04662638 0.07718518 -0.06568003 0.03055028 -0.110387236 0.051010262
-0.1388184 -0.045386262 -0.18237938 -0.007324718 -0.103339426 -0.29966334 -0.33952132 0.10296709
0.43033105 -0.10716336 0.039043278 -0.09278912 -0.18438654 -0.104219325 -0.07450007 0.0778385
0.06006188 -0.02016437 0.18542328 -0.11600735 -0.24225433 0.07963761 -0.014436975 -0.044126082
-0.045379486 -0.4077202 -0.018208789 -0.061494984 -0.09308723 -0.29809162 -0.12615947 -0.10057025
-0.06350639 -0.2385657 -0.057637606 -0.17526615 0.2478097 -0.1775997 -0.27632567 0.084000826
0.072604835 0.043287512 -0.059139464 -0.082602024 0.176316 0.07834552 -0.03724314 -0.00021673752
0.05900992 -0.3221329 -0.27951083 0.020968528 -0.17048736 -0.034617912 0.04126 -0.040841
0.039323885 -0.09424696 -0.37277085 -0.14727172 0.0041234517 -0.32732832 -0.11875934 -0.114936404
0.022240635 -0.08300236 0.10926479 0.021502407 0.05574849 -0.11247013 -0.16087252 0.18244961
0.08995042 -0.16341944 0.14653355 0.04198629 -0.1419441 0.16808145 -0.0901125 -0.14066428
-0.15747714 -0.20310517 -0.18816145 0.00018642195 0.112753734 0.11258851 -0.018944701 0.12872455
-0.031963147 -0.021840101 0.1691778 0.029374007 -0.06329489 -0.023580084 -0.13542727 0.19427055
0.039822098 0.017476032 -0.034277383 -0.11869139 -0.0047538886 0.047509473 0.13064705 0.13025719
-0.17661612 -0.42066723 0.10013479 -0.22650291 0.04345104 -0.2095205 0.057721026 0.08112249
-0.16804536 -0.24638966 -0.10292611 0.16416304 -0.17099802 0.07966495 -0.18375282 0.02593757
-0.12614658 -0.31236732 -0.11932086 0.05176925 -0.04413199 0.041396238 -0.052301526 -0.35395125
00000000: 5baf 31bd ec8f 87bd 0dc8 26be 75be ed3d
00000010: 0ca4 8b3d 7e42 633e 51b3 7abd 9eeb 0bbe
00000020: 9da5 26be f6c8 31be 1c30 9f3c 7410 a8bd
00000030: ed7f f13c 64ad 163e f517 8f3e 2145 0e3d
00000040: 8b68 abbb 6c25 eabd 31a3 193e b70b 933c
00000050: db2f 47bd 6e19 30bd 883a 23be 3eb9 30bd
00000060: 35b0 243e 276b 1b3e 4735 37be 9ec0 dd3d
00000070: 72fe 0d3e 8333 eabc 530e 10be 55db 663e
00000080: a4a0 3cbd 6dd5 07bc 2ec0 97bd 6d5c fdbd
00000090: 9e8d c2bd 2fca 46bc b948 85be 59dc 5f3e
000000a0: 05d9 85bd f421 02be 6512 c13d 9b7d 043e
000000b0: e463 bebd 9d25 16bd a078 263e b1bf a93e
000000c0: e512 32be aa3c 1bbc 5b3e d53c 03d2 673d
000000d0: 8fce 563e 6484 93bd 2ece acbd bff2 063b
000000e0: 0027 8f3b 97e6 5b3d 91fd 143e 5543 2c3e
000000f0: 618d a2bd 0691 e83d 394d cf3c 1d95 46bd
00000100: 1fc9 21bd 4e8f 8bbd 15c8 553c 30fd e33c
00000110: 24ac c53d ea95 873d d908 843e 64a3 89bd
00000120: 4bc8 ddbd 10aa d2bd de0b a3be 4ab8 e1bc
00000130: 0212 ad3d d8ea 253e 4d7c debb 59d1 023c
00000140: f9b0 043e f844 383d 5c0a cabd 916e 5dbe
00000150: d918 a0bd 8fa6 963d 4f77 1d3e d342 c2bd
00000160: 98b7 b3bd 1502 7b3d 54a1 2ebe ae20 73bd
00000170: 5ac7 f3bd 4c9f dc3d fcf9 8b3e ab71 0e3e
00000180: 7b76 0ebd 41fc 45be 8e64 e3bd 10f1 10be
00000190: 2eb7 7fbd 7fe1 6bbe 400f 273e c24d 2bbe
000001a0: a88f 1ebe 00b8 db3d b3f5 1c3e 90b2 f23c
000001b0: aaa1 083d 0f4f 383d 5231 0ebc af40 5ebc
000001c0: dbde 9d3d ac8c ec3c 2f25 e1bd cc5e a8be
000001d0: 37c1 4ebe d29f f1bc 4080 c7bd a6a8 053e
000001e0: d752 d2bd 6780 bb3b 4efb 3ebd 4313 9e3d
000001f0: 4083 86bd 9544 fa3c b412 e2bd 23f0 503d
00000200: 6926 0ebe f2e6 39bd a9c1 3abe 3004 f0bb
00000210: 9fa3 d3bd 796d 99be bdd5 adbe 69e0 d23d
00000220: 5a54 dc3e 7778 dbbd d8eb 1f3d 3908 bebd
00000230: d3cf 3cbe f170 d5bd 7e93 98bd cb69 9f3d
00000240: 7203 763d c02f a5bc 9adf 3d3e 4395 edbd
00000250: 8511 78be 0b19 a33d 1089 6cbc 8dbd 34bd
00000260: d7df 39bd b4c0 d0be 992a 95bc 2ae2 7bbd
00000270: 85a4 bebd 779f 98be f32f 01be c6f7 cdbd
00000280: a30f 82bd 914a 74be 6915 6cbd f878 33be
00000290: d3c1 7d3e b2dc 35be 8f7a 8dbe a008 ac3d
000002a0: d8b1 943d 3f4e 313d 393c 72bd 402b a9bd
000002b0: 2e8c 343e 9e73 a03d 438c 18bd 0944 63b9
000002c0: 63b4 713d 9aee a4be 0b1c 8fbe 31c6 ab3c
000002d0: 3d94 2ebe 83cb 0dbd 3f00 293d e448 27bd
000002e0: 1512 213d 8d04 c1bd d2db bebe 66ce 16be
000002f0: 051e 873b 9497 a7be 1938 f3bd c763 ebbd
00000300: fe31 b63c 24fd a9bd 38c6 df3d d125 b03c
00000310: 8758 643d bd56 e6bd c4bb 24be 12d4 3a3e
00000320: ed37 b83d 6d57 27be e40c 163e d1f9 2b3d
00000330: cb59 11be 8b1d 2c3e e78c b8bd 4c0a 10be
00000340: b041 21be cdfa 4fbe 65ad 40be 437a 4339
00000350: 6eeb e63d ce94 e63d eb31 9bbc 5ed0 033e
00000360: caeb 02bd 03ea b2bc f23c 2d3e c2a1 f03c
00000370: c0a0 81bd 052b c1bc 72ad 0abe dcee 463e
00000380: 7f1c 233d e529 8f3c 7166 0cbd 7914 f3bd
00000390: 82c6 9bbb 4b99 423d 57c8 053e 2462 053e
000003a0: dbda 34be b261 d7be 7813 cd3d 61f0 67be
000003b0: b8f9 313d 8b8c 56be e26c 6c3d 8c23 a63d
000003c0: 1514 2cbe 924d 7cbe edca d2bd 5b1a 283e
000003d0: 1b1a 2fbe 6127 a33d b329 3cbe 077b d43c
000003e0: 922c 01be 9cee 9fbe 7f5e f4bd fe0b 543d
000003f0: bfc3 34bd 1a8f 293d 203a 56bd 1939 b5be
